----------------------------------------------------------------
        Layer (type)               Output Shape         Param #
================================================================
            Conv2d-1           [-1, 16, 24, 24]             416
              ReLU-2           [-1, 16, 24, 24]               0
            Conv2d-3           [-1, 32, 20, 20]          12,832
              ReLU-4           [-1, 32, 20, 20]               0
            Linear-5                  [-1, 100]       1,280,100
            Linear-6                   [-1, 10]           1,010
================================================================
Total params: 1,294,358
Trainable params: 1,294,358
Non-trainable params: 0
----------------------------------------------------------------
Input size (MB): 0.00
Forward/backward pass size (MB): 0.34
Params size (MB): 4.94
Estimated Total Size (MB): 5.28
----------------------------------------------------------------
None
Validat
…
